Model State.pt (torch, 3184 bytes, 6 tensors)

forward_conn_1.weight f4 [10, 4]
000000 80 f0 86 be ba f8 8b be 18 df 99 3e 3c 60 a9 be
       -0.26355362 -0.273382 0.3005302 -0.33081234
000010 c0 ae 70 be 82 42 8b 3e 1a 5e be be 64 19 7b 3e
       -0.23504162 0.2719918 -0.3718117 0.24521405
000020 14 48 fa 3e 2d df 64 3c e5 8c 2b 3f 42 8a 60 3f
       0.48883116 0.013969225 0.67011863 0.87710965
000030 da 29 1b 3f e5 ca 01 3f 2a 4e 43 bf 0a 8f 75 be
       0.60610735 0.5070022 -0.76291144 -0.23980346
000040 f0 1a 2e 3f 2e ee f0 3e 6f db 31 bf 57 3f 51 bf
       0.68009853 0.47056717 -0.69475454 -0.81737274
000050 54 09 e2 be 7a a7 a9 3e 70 b9 31 bd 66 61 b0 3e
       -0.44147742 0.33135587 -0.043389738 0.3444931
000060 ab 25 0c 3f 30 1c b5 3e 80 ee 2f bf 3c ab 20 bf
       0.54744977 0.35373068 -0.687233 -0.6276128
000070 98 42 a4 be 48 92 e3 bd ec 2f 98 3e de 66 8b be
       -0.32082057 -0.11111885 0.2972406 -0.2722692
000080 10 99 ff bd 45 a9 7b be 7f fc a5 3e b3 e4 90 3f
       -0.12480366 -0.2457629 0.32419202 1.1319793
000090 52 ef 80 3e ab 97 0b bf ce ce 7a 3f f0 4a 01 3f
       0.25182587 -0.545283 0.9797181 0.5050497

forward_conn_1.bias f4 [10]
000000 f4 ea 52 3e e8 dd 53 3e 58 5b 62 be 72 18 a1 3e
       0.2059744 0.2069012 -0.22105157 0.31463963
000010 49 29 98 3f e0 87 ec bd fa 45 94 3f fe 8a 99 be
       1.1887599 -0.115493536 1.1583855 -0.29988855
000020 31 43 1c bf 97 33 ba bd
       -0.61040026 -0.09091871

forward_conn_2.weight f4 [8, 10]
000000 eb 7d 8c be e0 f4 47 3c f8 95 10 3f f1 3b 4c bf
       -0.27439818 0.012204379 0.56478834 -0.79778963
000010 47 d6 27 bf d8 68 94 be 4f 6e 78 bf 30 23 5a 3d
       -0.65561336 -0.2898624 -0.9704332 0.053256214
000020 62 7c 64 3f c4 92 05 3f 67 63 02 be 42 80 e9 bd
       0.89252293 0.5217707 -0.12733231 -0.11401416
000030 66 d8 5b be ee 04 10 3f 33 ad 8e 3e 86 34 a1 be
       -0.21469268 0.5625752 0.27866516 -0.31485385
000040 77 da fe 3e 88 f2 2c bd 28 5c 97 bc 13 ad 69 be
       0.4977605 -0.042223483 -0.01847656 -0.22819929
000050 45 52 8d 3e 94 1f c8 3d 58 e0 91 be 88 38 88 3d
       0.2760183 0.09771648 -0.28491473 0.066514075
000060 20 d4 93 bd 3e 19 22 3e 40 f8 8a be 60 83 bd bc
       -0.07218194 0.15829942 -0.27142525 -0.023133934
000070 9a 02 56 3e 90 84 e5 3d 84 5d 18 3e 71 15 89 3e
       0.2089943 0.11206925 0.14879423 0.2677417
000080 d5 63 8d 3d 50 00 80 3f 00 05 6a 3f 70 80 aa 3c
       0.06903807 1.0000095 0.9141388 0.020813197
000090 71 a2 a6 3f 06 5b 95 bd d1 a0 78 bf a8 c5 28 be
       1.3018323 -0.07292752 -0.97120386 -0.1648165
0000a0 14 08 b3 bd ee c2 6c 3e 23 7a 86 bd bc 80 7e 3d
       -0.08741775 0.23121235 -0.065662645 0.06213449
0000b0 20 64 c6 3e 2c 55 d6 bd ad 35 d7 3e 7d d0 92 be
       0.38748264 -0.10465464 0.4203314 -0.2867469
0000c0 f0 7b 0b be ec e2 a0 be 68 e1 12 bd 91 fd 8a 3e
       -0.13621497 -0.31423128 -0.035859495 0.2714658
0000d0 e3 77 0d bc 99 c6 57 3e 21 03 e6 bd ec 9e 96 be
       -0.00863454 0.21071853 -0.112310655 -0.29418123
0000e0 54 a4 3c be b8 d2 dd bd 52 8e 38 be cb ac d6 bd
       -0.18422061 -0.10831207 -0.18023041 -0.104821764
0000f0 f4 2a 39 3e c5 33 8d 3e a7 55 7b be 18 92 59 3e
       0.18082792 0.2757856 -0.24544393 0.21247137
000100 88 da 11 3f b8 f7 57 bd f5 3e cb 3e 9b 31 9f be
       0.5697408 -0.052726477 0.3969647 -0.31092533
000110 ef 3e 83 bf e8 59 a7 be b7 29 89 3e 8a 93 14 be
       -1.0253581 -0.3268578 0.26789638 -0.14509407
000120 fc da 63 be de db db 3e 63 a8 f3 3e 0d 6c 8d 3e
       -0.22251505 0.42941183 0.47589406 0.276215
000130 6f c6 b4 3e 0e b6 71 be 8b fa 7b 3d 75 cf ae be
       0.35307643 -0.23604605 0.061518233 -0.34142652

forward_conn_2.bias f4 [8]
000000 27 a3 7b 3e 80 bf 4e be f8 75 4f be 79 12 4e 3f
       0.24573956 -0.20190239 -0.20259845 0.8049694
000010 fc ac 4b bd dc 97 82 bd b8 30 a9 3e 38 a9 8d 3e
       -0.049725518 -0.06376621 0.33044982 0.27668166

out.weight f4 [3, 8]
000000 c9 66 2e bf 65 5b c9 3e 99 e5 8b 3e 3c 29 8d 3e
       -0.6812559 0.3932754 0.27323607 0.27570522
000010 a8 b8 35 3f a3 04 2a 3e 2a ca 25 3f 38 00 42 3f
       0.7098489 0.16603331 0.647616 0.75781584
000020 21 2b 83 be 1a 84 48 bf 46 31 58 3e 7b c8 9c 3f
       -0.25618842 -0.7832657 0.21112546 1.2248682
000030 b1 c9 47 bf 3b 27 64 3e ba 7e 39 bf 37 2b 12 bf
       -0.7804213 0.2228059 -0.72458994 -0.5709719
000040 ab 32 9a 3f 1f c2 ff be 3a 0f 2e 3e 11 2c 27 bf
       1.2046713 -0.4995279 0.16997996 -0.65301615
000050 cd 82 73 bd 07 38 30 be 72 fe 24 be 0e 88 2c bf
       -0.059450913 -0.17208873 -0.16112688 -0.673951

out.bias f4 [3]
000000 0a 46 d1 be f3 bf b3 3e e7 58 53 be
       -0.40873748 0.35107383 -0.20639382
